app/src/main/assets/classifier_mediapipe_tcn_int8.tflite (tflite, 239528 bytes, 7 tensors)

tfl.pseudo_qconst1 i1 [13, 64] scale=0.00940898 zero_point=0
0	0x25	0.34813225
1	0x67	0.9691249
2	0xf9	-0.06586286
3	0x2f	0.44222206
4	0x25	0.34813225
5	0x3c	0.5645388
6	0x66	0.9597159
7	0xbb	-0.6492196
8	0x2c	0.41399512
9	0x36	0.5080849
10	0x29	0.38576818
11	0x1c	0.26345143
12	0xdd	-0.3293143
13	0xc0	-0.6021747
14	0x42	0.62099266
15	0xee	-0.16936164
16	0x39	0.53631186
17	0x3e	0.58335674
18	0xd0	-0.451631
19	0xe0	-0.30108735
20	0x18	0.2258155
21	0xe9	-0.21640654
22	0x04	0.03763592
23	0xfc	-0.03763592
24	0x39	0.53631186
25	0xfc	-0.03763592
26	0x25	0.34813225
27	0xd8	-0.3763592
28	0xe6	-0.24463347
29	0xd1	-0.44222206
30	0xc2	-0.58335674
31	0xff	-0.00940898
32	0x65	0.95030695
33	0x68	0.97853386
34	0xe0	-0.30108735
35	0x15	0.19758858
36	0xd4	-0.41399512
37	0xf3	-0.12231673
38	0xcb	-0.4986759
39	0x06	0.056453876
40	0x40	0.6021747
41	0xee	-0.16936164
42	0xdf	-0.31049633
43	0x3c	0.5645388
44	0x61	0.912671
45	0xdc	-0.33872327
46	0x15	0.19758858
47	0xe7	-0.23522449
48	0xdd	-0.3293143
49	0x39	0.53631186
50	0xe2	-0.2822694
51	0xf4	-0.11290775
52	0xe8	-0.2258155
53	0xca	-0.5080849
54	0xd0	-0.451631
55	0x02	0.01881796
56	0xf7	-0.08468082
57	0xd4	-0.41399512
58	0xf1	-0.1411347
59	0x01	0.00940898
60	0x06	0.056453876
61	0x39	0.53631186
62	0x34	0.48926693
63	0xd9	-0.3669502
64	0x32	0.47044897
65	0xbe	-0.62099266
66	0x10	0.15054367
67	0x27	0.3669502
68	0x35	0.4986759
69	0x24	0.33872327
70	0xd6	-0.39517716
71	0xd8	-0.3763592
72	0xf1	-0.1411347
73	0xd0	-0.451631
74	0xe4	-0.26345143
75	0xb3	-0.7244914
76	0xd8	-0.3763592
77	0xe5	-0.25404245
78	0xe0	-0.30108735
79	0xca	-0.5080849
80	0x2d	0.4234041
81	0x3a	0.5457208
82	0xec	-0.1881796
83	0x18	0.2258155
84	0x20	0.30108735
85	0xea	-0.20699756
86	0xdf	-0.31049633
87	0x1c	0.26345143
88	0x38	0.52690285
89	0xec	-0.1881796
90	0x28	0.3763592
91	0xe7	-0.23522449
92	0x25	0.34813225
93	0xca	-0.5080849
94	0xda	-0.35754123
95	0xef	-0.15995266
96	0xee	-0.16936164
97	0xdd	-0.3293143
98	0xc7	-0.53631186
99	0x35	0.4986759
100	0x5a	0.8468082
101	0xe3	-0.2728604
102	0x41	0.61158365
103	0x4e	0.7339004
104	0x36	0.5080849
105	0xdc	-0.33872327
106	0x47	0.66803753
107	0x3b	0.5551298
108	0xe4	-0.26345143
109	0xc7	-0.53631186
110	0xf1	-0.1411347
111	0x1a	0.24463347
112	0xd0	-0.451631
113	0xd2	-0.43281308
114	0xe2	-0.2822694
115	0xd9	-0.3669502
116	0x56	0.8091723
117	0x2a	0.39517716
118	0x54	0.7903543
119	0x31	0.46104
120	0xa0	-0.903262
121	0x1e	0.2822694
122	0x13	0.17877062
123	0xe0	-0.30108735
124	0x18	0.2258155
125	0xff	-0.00940898
126	0x36	0.5080849
127	0x42	0.62099266
128	0xd4	-0.41399512
129	0x6e	1.0349878
130	0x08	0.07527184
131	0xe1	-0.29167837
132	0xf1	-0.1411347
133	0xf4	-0.11290775
134	0x6d	1.0255787
135	0xfc	-0.03763592
136	0xda	-0.35754123
137	0xf5	-0.10349878
138	0xd1	-0.44222206
139	0x1f	0.29167837
140	0x45	0.6492196
141	0x1f	0.29167837
142	0x1b	0.25404245
143	0x0c	0.11290775
144	0xe3	-0.2728604
145	0xe7	-0.23522449
146	0x0a	0.0940898
147	0xf8	-0.07527184
148	0xb6	-0.6962645
149	0xb1	-0.7433094
150	0x3b	0.5551298
151	0xdf	-0.31049633
152	0xeb	-0.19758858
153	0x35	0.4986759
154	0xd2	-0.43281308
155	0x15	0.19758858
156	0xbb	-0.6492196
157	0x39	0.53631186
158	0x09	0.08468082
159	0x15	0.19758858
160	0x73	1.0820327
161	0x76	1.1102597
162	0xae	-0.77153635
163	0xed	-0.17877062
164	0xe3	-0.2728604
165	0x40	0.6021747
166	0xc8	-0.52690285
167	0xc7	-0.53631186
168	0xf7	-0.08468082
169	0xc4	-0.5645388
170	0xd6	-0.39517716
171	0xe8	-0.2258155
172	0x6c	1.0161698
173	0xb8	-0.67744654
174	0xc9	-0.5174939
175	0xd5	-0.40458614
176	0xd3	-0.4234041
177	0x2a	0.39517716
178	0xda	-0.35754123
179	0x5e	0.8844441
180	0xcc	-0.48926693
181	0xf5	-0.10349878
182	0xcd	-0.47985795
183	0xf8	-0.07527184
184	0xb9	-0.66803753
185	0xde	-0.3199053
186	0xcf	-0.46104
187	0xda	-0.35754123
188	0xcd	-0.47985795
189	0x41	0.61158365
190	0xdd	-0.3293143
191	0xe8	-0.2258155
192	0xeb	-0.19758858
193	0x04	0.03763592
194	0xcb	-0.4986759
195	0xe4	-0.26345143
196	0xdf	-0.31049633
197	0xd3	-0.4234041
198	0xfa	-0.056453876
199	0xf2	-0.13172571
200	0xce	-0.47044897
201	0xf3	-0.12231673
202	0xdf	-0.31049633
203	0xda	-0.35754123
204	0x3e	0.58335674
205	0x36	0.5080849
206	0xea	-0.20699756
207	0x25	0.34813225
208	0xf7	-0.08468082
209	0x01	0.00940898
210	0x05	0.0470449
211	0x3e	0.58335674
212	0xa7	-0.8373992
213	0xb8	-0.67744654
214	0xde	-0.3199053
215	0xd5	-0.40458614
216	0xfe	-0.01881796
217	0xc9	-0.5174939
218	0xec	-0.1881796
219	0x41	0.61158365
220	0xe6	-0.24463347
221	0x23	0.3293143
222	0x2c	0.41399512
223	0xff	-0.00940898
224	0xe9	-0.21640654
225	0xf8	-0.07527184
226	0xbe	-0.62099266
227	0x15	0.19758858
228	0x5a	0.8468082
229	0x36	0.5080849
230	0x4d	0.7244914
231	0x54	0.7903543
232	0x19	0.23522449
233	0xcc	-0.48926693
234	0x4e	0.7339004
235	0x02	0.01881796
236	0xfa	-0.056453876
237	0xe6	-0.24463347
238	0xd4	-0.41399512
239	0xe0	-0.30108735
240	0xe6	-0.24463347
241	0xd4	-0.41399512
242	0xb4	-0.71508247
243	0x38	0.52690285
244	0x5b	0.85621715
245	0x21	0.31049633
246	0x56	0.8091723
247	0xef	-0.15995266
248	0xd1	-0.44222206
249	0xe1	-0.29167837
250	0xed	-0.17877062
251	0xde	-0.3199053
252	0xd7	-0.38576818
253	0xc0	-0.6021747
254	0xfa	-0.056453876
255	0x44	0.6398106

tfl.pseudo_qconst3 i1 [64, 128] scale=0.0067144805 zero_point=0
0	0x49	0.49015707
1	0xec	-0.1342896
2	0xed	-0.12757513
3	0xf6	-0.0671448
4	0x07	0.04700136
5	0xd2	-0.3088661
6	0xf1	-0.10071721
7	0xe6	-0.17457649
8	0xde	-0.22829233
9	0x09	0.060430326
10	0xd0	-0.32229507
11	0x01	0.0067144805
12	0x09	0.060430326
13	0x09	0.060430326
14	0x17	0.15443306
15	0x08	0.053715844
16	0x18	0.16114753
17	0x30	0.32229507
18	0x1d	0.19471994
19	0xf2	-0.09400272
20	0x1b	0.18129097
21	0xf2	-0.09400272
22	0xe4	-0.18800545
23	0xf4	-0.08057377
24	0xf6	-0.0671448
25	0x1c	0.18800545
26	0xf2	-0.09400272
27	0xeb	-0.14100409
28	0x09	0.060430326
29	0xe8	-0.16114753
30	0x06	0.040286884
31	0x02	0.013428961
32	0x01	0.0067144805
33	0xd0	-0.32229507
34	0xc4	-0.40286884
35	0x07	0.04700136
36	0xf9	-0.04700136
37	0xfb	-0.0335724
38	0xf5	-0.07385928
39	0x16	0.14771856
40	0xf5	-0.07385928
41	0xf9	-0.04700136
42	0xe5	-0.18129097
43	0x10	0.10743169
44	0xe7	-0.16786201
45	0x1a	0.17457649
46	0x10	0.10743169
47	0x1e	0.20143442
48	0xf3	-0.087288246
49	0x12	0.12086065
50	0x48	0.4834426
51	0x0f	0.10071721
52	0x1c	0.18800545
53	0xee	-0.12086065
54	0xe1	-0.2081489
55	0xf3	-0.087288246
56	0xee	-0.12086065
57	0x2a	0.28200817
58	0xe0	-0.21486337
59	0x0c	0.08057377
60	0xf2	-0.09400272
61	0x34	0.34915298
62	0x1d	0.19471994
63	0xfb	-0.0335724
64	0x1a	0.17457649
65	0x29	0.2752937
66	0xf7	-0.060430326
67	0x04	0.026857922
68	0xf0	-0.10743169
69	0x04	0.026857922
70	0xee	-0.12086065
71	0x07	0.04700136
72	0xfd	-0.020143442
73	0xf8	-0.053715844
74	0x1c	0.18800545
75	0xf9	-0.04700136
76	0xe9	-0.15443306
77	0x0f	0.10071721
78	0x09	0.060430326
79	0xff	-0.0067144805
80	0x3a	0.38943988
81	0xf6	-0.0671448
82	0x15	0.14100409
83	0x18	0.16114753
84	0xd3	-0.30215162
85	0xf7	-0.060430326
86	0xf3	-0.087288246
87	0x10	0.10743169
88	0xfa	-0.040286884
89	0xf7	-0.060430326
90	0x33	0.3424385
91	0x11	0.114146166
92	0xf3	-0.087288246
93	0x00	0.0
94	0xff	-0.0067144805
95	0x01	0.0067144805
96	0xef	-0.114146166
97	0x15	0.14100409
98	0x1a	0.17457649
99	0x04	0.026857922
100	0x01	0.0067144805
101	0xf3	-0.087288246
102	0x10	0.10743169
103	0x16	0.14771856
104	0x1d	0.19471994
105	0x0a	0.0671448
106	0x08	0.053715844
107	0xea	-0.14771856
108	0x08	0.053715844
109	0xe5	-0.18129097
110	0xec	-0.1342896
111	0x20	0.21486337
112	0x0e	0.09400272
113	0xf4	-0.08057377
114	0x19	0.16786201
115	0xfe	-0.013428961
116	0x1a	0.17457649
117	0xe2	-0.20143442
118	0xec	-0.1342896
119	0xe6	-0.17457649
120	0xf9	-0.04700136
121	0xfe	-0.013428961
122	0x10	0.10743169
123	0xeb	-0.14100409
124	0x1b	0.18129097
125	0x33	0.3424385
126	0x0d	0.087288246
127	0x03	0.020143442
128	0xe5	-0.18129097
129	0xf8	-0.053715844
130	0xe6	-0.17457649
131	0x19	0.16786201
132	0x0f	0.10071721
133	0x0c	0.08057377
134	0x0a	0.0671448
135	0x05	0.0335724
136	0x00	0.0
137	0xfc	-0.026857922
138	0x05	0.0335724
139	0xe8	-0.16114753
140	0xf7	-0.060430326
141	0x01	0.0067144805
142	0x03	0.020143442
143	0xeb	-0.14100409
144	0x04	0.026857922
145	0x07	0.04700136
146	0x07	0.04700136
147	0x10	0.10743169
148	0xe5	-0.18129097
149	0xee	-0.12086065
150	0x16	0.14771856
151	0x16	0.14771856
152	0xfc	-0.026857922
153	0xfe	-0.013428961
154	0xea	-0.14771856
155	0xf5	-0.07385928
156	0xf4	-0.08057377
157	0xd8	-0.2685792
158	0x03	0.020143442
159	0xfd	-0.020143442
160	0x29	0.2752937
161	0x05	0.0335724
162	0x06	0.040286884
163	0x0f	0.10071721
164	0x08	0.053715844
165	0xd5	-0.28872266
166	0x10	0.10743169
167	0x01	0.0067144805
168	0x11	0.114146166
169	0xfd	-0.020143442
170	0x13	0.12757513
171	0xe8	-0.16114753
172	0x0d	0.087288246
173	0x17	0.15443306
174	0x09	0.060430326
175	0xf3	-0.087288246
176	0x15	0.14100409
177	0xe8	-0.16114753
178	0xfc	-0.026857922
179	0xfc	-0.026857922
180	0xd1	-0.31558058
181	0x05	0.0335724
182	0xfe	-0.013428961
183	0xed	-0.12757513
184	0xeb	-0.14100409
185	0x04	0.026857922
186	0xed	-0.12757513
187	0x13	0.12757513
188	0xee	-0.12086065
189	0xf1	-0.10071721
190	0xfa	-0.040286884
191	0x22	0.22829233
192	0xf6	-0.0671448
193	0x05	0.0335724
194	0x03	0.020143442
195	0x02	0.013428961
196	0x1c	0.18800545
197	0x19	0.16786201
198	0xfe	-0.013428961
199	0x2a	0.28200817
200	0x02	0.013428961
201	0xe4	-0.18800545
202	0x00	0.0
203	0xef	-0.114146166
204	0x1d	0.19471994
205	0x05	0.0335724
206	0xf8	-0.053715844
207	0xe9	-0.15443306
208	0xff	-0.0067144805
209	0x05	0.0335724
210	0xe9	-0.15443306
211	0xd8	-0.2685792
212	0x0a	0.0671448
213	0xea	-0.14771856
214	0x1f	0.2081489
215	0xba	-0.47001362
216	0xe6	-0.17457649
217	0x3f	0.42301226
218	0xe9	-0.15443306
219	0xf6	-0.0671448
220	0x06	0.040286884
221	0x02	0.013428961
222	0x20	0.21486337
223	0x02	0.013428961
224	0x0a	0.0671448
225	0xfe	-0.013428961
226	0xfc	-0.026857922
227	0x1a	0.17457649
228	0xeb	-0.14100409
229	0xe7	-0.16786201
230	0x0f	0.10071721
231	0xf7	-0.060430326
232	0x04	0.026857922
233	0x0c	0.08057377
234	0x0e	0.09400272
235	0x17	0.15443306
236	0x08	0.053715844
237	0xf9	-0.04700136
238	0xd6	-0.28200817
239	0x0b	0.07385928
240	0xfc	-0.026857922
241	0x2a	0.28200817
242	0x09	0.060430326
243	0xd3	-0.30215162
244	0x04	0.026857922
245	0x11	0.114146166
246	0xff	-0.0067144805
247	0x0d	0.087288246
248	0x18	0.16114753
249	0x15	0.14100409
250	0x22	0.22829233
251	0x05	0.0335724
252	0xff	-0.0067144805
253	0x08	0.053715844
254	0xe5	-0.18129097
255	0x00	0.0

tfl.pseudo_qconst5 i1 [128, 1, 3, 128]
0	0xf0	-16
1	0xd1	-47
2	0x06	6
3	0xeb	-21
4	0xcf	-49
5	0xee	-18
6	0xd3	-45
7	0xf5	-11
8	0xd6	-42
9	0xe5	-27
10	0x0c	12
11	0xc0	-64
12	0x39	57
13	0xe6	-26
14	0xe5	-27
15	0xf0	-16
16	0xc0	-64
17	0xce	-50
18	0xd4	-44
19	0xf7	-9
20	0x24	36
21	0xfc	-4
22	0xee	-18
23	0xf9	-7
24	0xff	-1
25	0xc3	-61
26	0xf1	-15
27	0xff	-1
28	0xd4	-44
29	0xbe	-66
30	0xda	-38
31	0xeb	-21
32	0xd9	-39
33	0x04	4
34	0x09	9
35	0xd3	-45
36	0x08	8
37	0xbf	-65
38	0xfe	-2
39	0x04	4
40	0xe5	-27
41	0xe0	-32
42	0x08	8
43	0xb4	-76
44	0xf2	-14
45	0xc8	-56
46	0xd4	-44
47	0xd2	-46
48	0xbf	-65
49	0xd5	-43
50	0xe6	-26
51	0xe3	-29
52	0xe7	-25
53	0xc3	-61
54	0xf6	-10
55	0xd3	-45
56	0xd8	-40
57	0xf3	-13
58	0xec	-20
59	0x09	9
60	0x1d	29
61	0xc4	-60
62	0xf4	-12
63	0xc6	-58
64	0xe8	-24
65	0xe9	-23
66	0xfb	-5
67	0xfd	-3
68	0x07	7
69	0xc7	-57
70	0xe3	-29
71	0x06	6
72	0xf1	-15
73	0x04	4
74	0xdd	-35
75	0xee	-18
76	0x1d	29
77	0xe4	-28
78	0xdd	-35
79	0xd7	-41
80	0x03	3
81	0x3d	61
82	0xed	-19
83	0x0c	12
84	0xb0	-80
85	0x01	1
86	0x3b	59
87	0xde	-34
88	0xed	-19
89	0xee	-18
90	0xf1	-15
91	0xbc	-68
92	0xf1	-15
93	0x0c	12
94	0xe8	-24
95	0x2d	45
96	0xe3	-29
97	0xce	-50
98	0xd2	-46
99	0x23	35
100	0xfb	-5
101	0xf4	-12
102	0xf7	-9
103	0xea	-22
104	0x20	32
105	0xa7	-89
106	0xdb	-37
107	0x3c	60
108	0x14	20
109	0xea	-22
110	0xe2	-30
111	0xd4	-44
112	0xf3	-13
113	0xf3	-13
114	0xf1	-15
115	0x11	17
116	0x02	2
117	0xf3	-13
118	0xcc	-52
119	0x0d	13
120	0xe7	-25
121	0x0d	13
122	0xec	-20
123	0xe5	-27
124	0xd9	-39
125	0xf0	-16
126	0x03	3
127	0xf2	-14
128	0x08	8
129	0xea	-22
130	0xfb	-5
131	0x04	4
132	0xe7	-25
133	0xd6	-42
134	0xeb	-21
135	0xf0	-16
136	0xfc	-4
137	0xd6	-42
138	0x0b	11
139	0xbb	-69
140	0x17	23
141	0xe2	-30
142	0xee	-18
143	0xf8	-8
144	0xd8	-40
145	0xfd	-3
146	0xe3	-29
147	0x04	4
148	0x74	116
149	0x21	33
150	0x01	1
151	0x00	0
152	0xee	-18
153	0xc6	-58
154	0xe1	-31
155	0xe0	-32
156	0xd1	-47
157	0xee	-18
158	0xe3	-29
159	0x0c	12
160	0xe5	-27
161	0x02	2
162	0x1f	31
163	0xdb	-37
164	0x14	20
165	0xb2	-78
166	0x0f	15
167	0x0a	10
168	0xe3	-29
169	0xe7	-25
170	0x18	24
171	0xc2	-62
172	0xfa	-6
173	0xf4	-12
174	0x00	0
175	0xd3	-45
176	0xdb	-37
177	0xde	-34
178	0xff	-1
179	0xe6	-26
180	0xf5	-11
181	0xcc	-52
182	0xf8	-8
183	0xf9	-7
184	0xd8	-40
185	0x04	4
186	0xd5	-43
187	0x1e	30
188	0x38	56
189	0xef	-17
190	0x1d	29
191	0xfc	-4
192	0x12	18
193	0xed	-19
194	0xea	-22
195	0xed	-19
196	0x19	25
197	0xbc	-68
198	0xe9	-23
199	0x16	22
200	0xdc	-36
201	0xf8	-8
202	0xe1	-31
203	0xec	-20
204	0x03	3
205	0xf1	-15
206	0x10	16
207	0xd5	-43
208	0xf0	-16
209	0x33	51
210	0xce	-50
211	0x22	34
212	0xa1	-95
213	0x1f	31
214	0x53	83
215	0xfe	-2
216	0xe8	-24
217	0xb9	-71
218	0xec	-20
219	0xd9	-39
220	0xe8	-24
221	0xf0	-16
222	0xd3	-45
223	0x30	48
224	0xd2	-46
225	0xf9	-7
226	0xdb	-37
227	0x32	50
228	0xf8	-8
229	0xe4	-28
230	0x10	16
231	0xdd	-35
232	0x1a	26
233	0xd9	-39
234	0xdf	-33
235	0x00	0
236	0x0c	12
237	0x0a	10
238	0x0c	12
239	0xd3	-45
240	0x0a	10
241	0x01	1
242	0x20	32
243	0x20	32
244	0xe3	-29
245	0x29	41
246	0xe3	-29
247	0x11	17
248	0xda	-38
249	0x37	55
250	0xe3	-29
251	0xfc	-4
252	0x03	3
253	0xde	-34
254	0xf3	-13
255	0xf0	-16

tfl.pseudo_qconst7 i1 [128, 1, 3, 128]
0	0x21	33
1	0xf1	-15
2	0x1e	30
3	0xea	-22
4	0xfc	-4
5	0x08	8
6	0x1e	30
7	0x0c	12
8	0xf6	-10
9	0x23	35
10	0xe6	-26
11	0xec	-20
12	0xf5	-11
13	0x06	6
14	0xe0	-32
15	0xfd	-3
16	0x14	20
17	0xfc	-4
18	0x06	6
19	0xf3	-13
20	0x52	82
21	0xdb	-37
22	0x18	24
23	0x21	33
24	0xfb	-5
25	0xe5	-27
26	0x14	20
27	0xe8	-24
28	0x29	41
29	0xe4	-28
30	0xd2	-46
31	0xc9	-55
32	0x26	38
33	0xf8	-8
34	0xd3	-45
35	0xfd	-3
36	0xeb	-21
37	0xf8	-8
38	0xf2	-14
39	0xec	-20
40	0xff	-1
41	0xef	-17
42	0x16	22
43	0x16	22
44	0x06	6
45	0x22	34
46	0xeb	-21
47	0x16	22
48	0xff	-1
49	0x14	20
50	0x15	21
51	0x26	38
52	0x01	1
53	0xf3	-13
54	0x06	6
55	0xfc	-4
56	0xfa	-6
57	0x01	1
58	0xfb	-5
59	0xe6	-26
60	0xf9	-7
61	0xfc	-4
62	0x25	37
63	0xe8	-24
64	0x2b	43
65	0x02	2
66	0x0e	14
67	0xd2	-46
68	0x18	24
69	0x0c	12
70	0x21	33
71	0x26	38
72	0x20	32
73	0xfd	-3
74	0x14	20
75	0x22	34
76	0xf9	-7
77	0x14	20
78	0x1c	28
79	0xfb	-5
80	0xf1	-15
81	0xf7	-9
82	0x19	25
83	0x11	17
84	0x2c	44
85	0xee	-18
86	0x1b	27
87	0x36	54
88	0xff	-1
89	0x35	53
90	0x35	53
91	0xda	-38
92	0x14	20
93	0x1f	31
94	0xce	-50
95	0xfd	-3
96	0x36	54
97	0x15	21
98	0xea	-22
99	0xe5	-27
100	0x05	5
101	0xf6	-10
102	0x0e	14
103	0xfe	-2
104	0x13	19
105	0x05	5
106	0xcf	-49
107	0x21	33
108	0x0c	12
109	0x00	0
110	0x1c	28
111	0x1e	30
112	0x03	3
113	0x04	4
114	0xf6	-10
115	0xf6	-10
116	0x05	5
117	0xf5	-11
118	0x17	23
119	0x1f	31
120	0xc8	-56
121	0x0a	10
122	0x0d	13
123	0xfc	-4
124	0x07	7
125	0x25	37
126	0x0a	10
127	0x01	1
128	0x31	49
129	0xfe	-2
130	0x17	23
131	0xe7	-25
132	0xee	-18
133	0xdd	-35
134	0x08	8
135	0xf8	-8
136	0xd5	-43
137	0xef	-17
138	0x00	0
139	0xea	-22
140	0xf8	-8
141	0xdd	-35
142	0xd6	-42
143	0xed	-19
144	0xde	-34
145	0xed	-19
146	0xf8	-8
147	0xf5	-11
148	0x30	48
149	0xe1	-31
150	0xf8	-8
151	0xec	-20
152	0xff	-1
153	0xe4	-28
154	0x09	9
155	0xfe	-2
156	0x13	19
157	0x06	6
158	0xcb	-53
159	0xe3	-29
160	0xf5	-11
161	0x18	24
162	0xf3	-13
163	0xda	-38
164	0x01	1
165	0xfc	-4
166	0xe2	-30
167	0xff	-1
168	0x03	3
169	0xdd	-35
170	0x21	33
171	0x00	0
172	0x05	5
173	0x12	18
174	0xf0	-16
175	0xf4	-12
176	0x14	20
177	0x0c	12
178	0xf3	-13
179	0xf9	-7
180	0xfc	-4
181	0xe4	-28
182	0xf6	-10
183	0xf1	-15
184	0xea	-22
185	0xef	-17
186	0x1d	29
187	0xe2	-30
188	0xec	-20
189	0x0f	15
190	0x0a	10
191	0xdf	-33
192	0xff	-1
193	0xf0	-16
194	0xea	-22
195	0x09	9
196	0xf1	-15
197	0xeb	-21
198	0xe9	-23
199	0x06	6
200	0xf4	-12
201	0xed	-19
202	0x51	81
203	0xf3	-13
204	0xef	-17
205	0xff	-1
206	0x0c	12
207	0xd2	-46
208	0xe3	-29
209	0xf1	-15
210	0x12	18
211	0xea	-22
212	0x39	57
213	0xf3	-13
214	0xe7	-25
215	0x08	8
216	0xff	-1
217	0xf8	-8
218	0x50	80
219	0xe7	-25
220	0xfe	-2
221	0x03	3
222	0xa7	-89
223	0x0d	13
224	0x4d	77
225	0xeb	-21
226	0xde	-34
227	0x1e	30
228	0x1f	31
229	0xf6	-10
230	0xe1	-31
231	0xd7	-41
232	0xf8	-8
233	0xe3	-29
234	0x9b	-101
235	0x06	6
236	0xe6	-26
237	0xee	-18
238	0xe2	-30
239	0xea	-22
240	0xc7	-57
241	0x12	18
242	0xd9	-39
243	0xe9	-23
244	0x31	49
245	0xf5	-11
246	0x0f	15
247	0x03	3
248	0xc0	-64
249	0xdd	-35
250	0xe4	-28
251	0xeb	-21
252	0x0d	13
253	0x22	34
254	0x18	24
255	0x1d	29

tfl.pseudo_qconst9 i1 [128, 1, 3, 128]
0	0x1d	29
1	0x1c	28
2	0x34	52
3	0x37	55
4	0xf9	-7
5	0xf1	-15
6	0xd1	-47
7	0x13	19
8	0xa9	-87
9	0x48	72
10	0x0d	13
11	0x14	20
12	0xd8	-40
13	0x3b	59
14	0xd4	-44
15	0xed	-19
16	0x1a	26
17	0xed	-19
18	0x3b	59
19	0xeb	-21
20	0xd6	-42
21	0xbb	-69
22	0x44	68
23	0xf6	-10
24	0x0d	13
25	0xeb	-21
26	0x11	17
27	0xa4	-92
28	0x1e	30
29	0xda	-38
30	0x27	39
31	0xf5	-11
32	0xc7	-57
33	0xe6	-26
34	0x18	24
35	0x2d	45
36	0x27	39
37	0x05	5
38	0xe9	-23
39	0xe4	-28
40	0xfa	-6
41	0x0a	10
42	0xe9	-23
43	0x11	17
44	0x13	19
45	0x15	21
46	0x40	64
47	0xc7	-57
48	0x35	53
49	0xf1	-15
50	0xfe	-2
51	0xf9	-7
52	0xc5	-59
53	0xda	-38
54	0xa9	-87
55	0x0c	12
56	0xf5	-11
57	0x15	21
58	0x42	66
59	0xf8	-8
60	0x29	41
61	0xe2	-30
62	0xf5	-11
63	0xd2	-46
64	0x21	33
65	0xe3	-29
66	0xff	-1
67	0x36	54
68	0xd5	-43
69	0xe7	-25
70	0xd6	-42
71	0xfe	-2
72	0x0d	13
73	0x1f	31
74	0x09	9
75	0x00	0
76	0xfa	-6
77	0x10	16
78	0xe4	-28
79	0xea	-22
80	0xee	-18
81	0x40	64
82	0x00	0
83	0xfb	-5
84	0x42	66
85	0x48	72
86	0xe6	-26
87	0xe6	-26
88	0x06	6
89	0xe5	-27
90	0xcf	-49
91	0x01	1
92	0xde	-34
93	0xa9	-87
94	0xeb	-21
95	0x83	-125
96	0x08	8
97	0xd9	-39
98	0x04	4
99	0x18	24
100	0xda	-38
101	0xcb	-53
102	0xda	-38
103	0x0f	15
104	0xe3	-29
105	0xfc	-4
106	0xfe	-2
107	0x2e	46
108	0xb7	-73
109	0x20	32
110	0xef	-17
111	0xf0	-16
112	0xf3	-13
113	0x0f	15
114	0xf4	-12
115	0xc4	-60
116	0x31	49
117	0xaf	-81
118	0x04	4
119	0xdf	-33
120	0x5c	92
121	0xd3	-45
122	0x32	50
123	0xfa	-6
124	0x08	8
125	0xc4	-60
126	0xde	-34
127	0x21	33
128	0x1b	27
129	0x07	7
130	0x19	25
131	0x22	34
132	0xcf	-49
133	0xde	-34
134	0xdc	-36
135	0xde	-34
136	0xb1	-79
137	0x1e	30
138	0x1e	30
139	0x26	38
140	0xb6	-74
141	0x36	54
142	0xf5	-11
143	0xdd	-35
144	0x29	41
145	0xdd	-35
146	0xf7	-9
147	0xdf	-33
148	0xaf	-81
149	0xcd	-51
150	0x11	17
151	0x02	2
152	0x0d	13
153	0x21	33
154	0x2a	42
155	0xc6	-58
156	0x3a	58
157	0xd9	-39
158	0xd6	-42
159	0xf7	-9
160	0xee	-18
161	0xe5	-27
162	0x47	71
163	0x6d	109
164	0x09	9
165	0xfa	-6
166	0xdb	-37
167	0xf7	-9
168	0xd4	-44
169	0xf6	-10
170	0xc3	-61
171	0xf6	-10
172	0xf5	-11
173	0x32	50
174	0x1f	31
175	0xbe	-66
176	0x62	98
177	0xf7	-9
178	0x1a	26
179	0xe7	-25
180	0xd1	-47
181	0xdf	-33
182	0xcb	-53
183	0xec	-20
184	0xf0	-16
185	0x1c	28
186	0x23	35
187	0xf2	-14
188	0x1f	31
189	0xd6	-42
190	0xef	-17
191	0xe2	-30
192	0x29	41
193	0xc8	-56
194	0xe8	-24
195	0x6a	106
196	0xc7	-57
197	0xc8	-56
198	0xce	-50
199	0xd8	-40
200	0xec	-20
201	0x13	19
202	0x2d	45
203	0x03	3
204	0xfa	-6
205	0x0e	14
206	0xe9	-23
207	0xbf	-65
208	0x12	18
209	0x2e	46
210	0x12	18
211	0x18	24
212	0x28	40
213	0x62	98
214	0x33	51
215	0x09	9
216	0x2d	45
217	0x17	23
218	0x03	3
219	0x12	18
220	0xcd	-51
221	0xcf	-49
222	0xe2	-30
223	0xb4	-76
224	0xff	-1
225	0x07	7
226	0x07	7
227	0xeb	-21
228	0x24	36
229	0xcc	-52
230	0x2a	42
231	0x3f	63
232	0xf1	-15
233	0x02	2
234	0x29	41
235	0x0c	12
236	0x95	-107
237	0x0c	12
238	0xe5	-27
239	0xc5	-59
240	0xe9	-23
241	0xf0	-16
242	0x0e	14
243	0xae	-82
244	0x18	24
245	0xb9	-71
246	0x23	35
247	0xde	-34
248	0x0e	14
249	0xc8	-56
250	0xfd	-3
251	0xfd	-3
252	0x46	70
253	0xc9	-55
254	0xe5	-27
255	0xf6	-10

tfl.pseudo_qconst11 i1 [128, 1, 3, 128]
0	0x2a	42
1	0xfa	-6
2	0x29	41
3	0xff	-1
4	0x08	8
5	0xdf	-33
6	0xd4	-44
7	0x17	23
8	0xd7	-41
9	0x05	5
10	0x24	36
11	0x27	39
12	0xf3	-13
13	0x0e	14
14	0x03	3
15	0x0c	12
16	0xfe	-2
17	0x33	51
18	0xe7	-25
19	0x31	49
20	0x14	20
21	0xf2	-14
22	0x1a	26
23	0xb3	-77
24	0xeb	-21
25	0xe8	-24
26	0x25	37
27	0xc7	-57
28	0x0e	14
29	0x12	18
30	0x59	89
31	0x33	51
32	0x1e	30
33	0xe3	-29
34	0x23	35
35	0x0b	11
36	0x21	33
37	0x2b	43
38	0xec	-20
39	0x05	5
40	0x57	87
41	0xfa	-6
42	0x1e	30
43	0xf0	-16
44	0xff	-1
45	0xe5	-27
46	0x03	3
47	0x93	-109
48	0x17	23
49	0x0c	12
50	0x4f	79
51	0x27	39
52	0x0e	14
53	0xf6	-10
54	0xfe	-2
55	0xf0	-16
56	0xee	-18
57	0xd0	-48
58	0x2d	45
59	0x18	24
60	0x12	18
61	0x06	6
62	0x1d	29
63	0xb4	-76
64	0xf6	-10
65	0x11	17
66	0xea	-22
67	0xdf	-33
68	0xd4	-44
69	0x44	68
70	0x1d	29
71	0xf6	-10
72	0xf3	-13
73	0xec	-20
74	0xf5	-11
75	0x21	33
76	0x01	1
77	0xf9	-7
78	0x33	51
79	0xf5	-11
80	0xdf	-33
81	0x2c	44
82	0xd0	-48
83	0xf8	-8
84	0x0d	13
85	0x1a	26
86	0x05	5
87	0x14	20
88	0x1a	26
89	0x13	19
90	0x44	68
91	0xe5	-27
92	0xcb	-53
93	0x4c	76
94	0xf1	-15
95	0x2a	42
96	0x0d	13
97	0xd5	-43
98	0x21	33
99	0xe8	-24
100	0x19	25
101	0xe2	-30
102	0xdb	-37
103	0x79	121
104	0x5e	94
105	0x24	36
106	0x9e	-98
107	0xda	-38
108	0x1d	29
109	0x25	37
110	0xe7	-25
111	0xdc	-36
112	0x3f	63
113	0x35	53
114	0xf8	-8
115	0xf3	-13
116	0x2a	42
117	0xc5	-59
118	0xec	-20
119	0x2e	46
120	0x30	48
121	0xd6	-42
122	0xc1	-63
123	0x07	7
124	0xf5	-11
125	0xca	-54
126	0xf9	-7
127	0x10	16
128	0x58	88
129	0xbd	-67
130	0x1c	28
131	0x0c	12
132	0x14	20
133	0xdc	-36
134	0xe1	-31
135	0x10	16
136	0xe7	-25
137	0x15	21
138	0x16	22
139	0xf5	-11
140	0xe5	-27
141	0xe2	-30
142	0xeb	-21
143	0xdc	-36
144	0x28	40
145	0x34	52
146	0x14	20
147	0x0e	14
148	0x08	8
149	0xc2	-62
150	0x44	68
151	0xc4	-60
152	0xe9	-23
153	0xe0	-32
154	0x31	49
155	0xea	-22
156	0x18	24
157	0xe1	-31
158	0x4b	75
159	0x28	40
160	0x38	56
161	0xe6	-26
162	0x1c	28
163	0xfe	-2
164	0x49	73
165	0x02	2
166	0xc0	-64
167	0xe4	-28
168	0x54	84
169	0xe4	-28
170	0x0f	15
171	0x01	1
172	0xdb	-37
173	0xf5	-11
174	0x08	8
175	0xb0	-80
176	0x2f	47
177	0xfc	-4
178	0x54	84
179	0x24	36
180	0x16	22
181	0x0b	11
182	0xc9	-55
183	0xba	-70
184	0xcf	-49
185	0xef	-17
186	0x2f	47
187	0x2f	47
188	0x05	5
189	0x12	18
190	0xec	-20
191	0xcd	-51
192	0x23	35
193	0x12	18
194	0x15	21
195	0x05	5
196	0xe2	-30
197	0x1e	30
198	0xe5	-27
199	0x0f	15
200	0xe5	-27
201	0xf8	-8
202	0xf3	-13
203	0x0e	14
204	0xfc	-4
205	0xd0	-48
206	0x25	37
207	0x0c	12
208	0xd4	-44
209	0xf1	-15
210	0x9c	-100
211	0xe6	-26
212	0x18	24
213	0x04	4
214	0xef	-17
215	0xeb	-21
216	0x13	19
217	0x25	37
218	0x4b	75
219	0xec	-20
220	0xe8	-24
221	0x12	18
222	0xdf	-33
223	0x19	25
224	0x26	38
225	0xd5	-43
226	0x15	21
227	0xfe	-2
228	0x1e	30
229	0xe8	-24
230	0xde	-34
231	0x55	85
232	0x69	105
233	0x28	40
234	0x81	-127
235	0xcf	-49
236	0x1e	30
237	0x00	0
238	0xfe	-2
239	0xe0	-32
240	0x40	64
241	0x45	69
242	0x01	1
243	0xdf	-33
244	0x18	24
245	0x0c	12
246	0xd4	-44
247	0x0f	15
248	0x1a	26
249	0xe8	-24
250	0xc9	-55
251	0xfe	-2
252	0x1d	29
253	0xdd	-35
254	0xcd	-51
255	0xf1	-15

tfl.pseudo_qconst13 i1 [128, 1, 1, 63]
0	0x36	54
1	0x14	20
2	0xf5	-11
3	0x25	37
4	0x1f	31
5	0xe6	-26
6	0x0f	15
7	0x39	57
8	0xe9	-23
9	0xf7	-9
10	0x0a	10
11	0xde	-34
12	0x22	34
13	0xef	-17
14	0xf8	-8
15	0x54	84
16	0x05	5
17	0xdb	-37
18	0x1a	26
19	0x18	24
20	0xd3	-45
21	0xd8	-40
22	0x23	35
23	0xd8	-40
24	0x8a	-118
25	0xed	-19
26	0xf0	-16
27	0x4c	76
28	0xe5	-27
29	0xdb	-37
30	0x28	40
31	0x21	33
32	0x0a	10
33	0x05	5
34	0x22	34
35	0x3a	58
36	0xf8	-8
37	0xa3	-93
38	0x54	84
39	0x1f	31
40	0xce	-50
41	0xe6	-26
42	0x41	65
43	0x46	70
44	0xf5	-11
45	0x11	17
46	0x01	1
47	0x20	32
48	0xa4	-92
49	0x99	-103
50	0x29	41
51	0xe1	-31
52	0xa0	-96
53	0xda	-38
54	0x1c	28
55	0x02	2
56	0x04	4
57	0xdb	-37
58	0x15	21
59	0x39	57
60	0x81	-127
61	0x07	7
62	0x44	68
63	0xcf	-49
64	0xd5	-43
65	0x82	-126
66	0xed	-19
67	0xe2	-30
68	0xca	-54
69	0xad	-83
70	0xfa	-6
71	0xd0	-48
72	0xda	-38
73	0x2b	43
74	0xfd	-3
75	0xff	-1
76	0xdd	-35
77	0xff	-1
78	0xfe	-2
79	0xd5	-43
80	0x02	2
81	0xfc	-4
82	0x13	19
83	0x46	70
84	0x30	48
85	0xc1	-63
86	0x5c	92
87	0x7f	127
88	0x26	38
89	0x79	121
90	0xfd	-3
91	0xf2	-14
92	0x06	6
93	0xec	-20
94	0xd1	-47
95	0x2e	46
96	0xdf	-33
97	0xd8	-40
98	0x13	19
99	0xec	-20
100	0x59	89
101	0x09	9
102	0x25	37
103	0x29	41
104	0x1f	31
105	0x0d	13
106	0xc6	-58
107	0x28	40
108	0xf6	-10
109	0xe7	-25
110	0xde	-34
111	0xf5	-11
112	0x5d	93
113	0xb8	-72
114	0x1c	28
115	0x53	83
116	0x03	3
117	0x00	0
118	0x28	40
119	0x09	9
120	0x12	18
121	0xf8	-8
122	0xe1	-31
123	0x34	52
124	0x1d	29
125	0xa3	-93
126	0x17	23
127	0xdd	-35
128	0xf2	-14
129	0xe4	-28
130	0x3c	60
131	0x03	3
132	0x20	32
133	0x47	71
134	0x12	18
135	0x28	40
136	0x07	7
137	0x16	22
138	0x81	-127
139	0x5e	94
140	0x23	35
141	0x18	24
142	0x3d	61
143	0xe3	-29
144	0x0c	12
145	0x09	9
146	0xf0	-16
147	0xfc	-4
148	0x30	48
149	0x05	5
150	0xf2	-14
151	0xd0	-48
152	0x09	9
153	0x2c	44
154	0x00	0
155	0xc5	-59
156	0x30	48
157	0xe6	-26
158	0xfd	-3
159	0x3e	62
160	0x12	18
161	0x14	20
162	0x22	34
163	0xc6	-58
164	0x27	39
165	0x19	25
166	0xdb	-37
167	0xc5	-59
168	0x38	56
169	0xf2	-14
170	0xfc	-4
171	0x16	22
172	0xf7	-9
173	0x09	9
174	0xaa	-86
175	0xb4	-76
176	0x0e	14
177	0xdb	-37
178	0xde	-34
179	0xc6	-58
180	0x08	8
181	0xe2	-30
182	0xe7	-25
183	0x04	4
184	0xff	-1
185	0x17	23
186	0xaf	-81
187	0x18	24
188	0x09	9
189	0x30	48
190	0xbd	-67
191	0xc6	-58
192	0xd4	-44
193	0xd1	-47
194	0xfa	-6
195	0xe8	-24
196	0xd5	-43
197	0x1d	29
198	0x65	101
199	0xed	-19
200	0x34	52
201	0x7f	127
202	0x52	82
203	0x48	72
204	0xfb	-5
205	0x4a	74
206	0xc5	-59
207	0xd3	-45
208	0x0e	14
209	0xef	-17
210	0x02	2
211	0xa2	-94
212	0x33	51
213	0x34	52
214	0xc7	-57
215	0x5c	92
216	0x0f	15
217	0x17	23
218	0x9f	-97
219	0x1a	26
220	0xd4	-44
221	0xd3	-45
222	0x0a	10
223	0x0d	13
224	0x0d	13
225	0x27	39
226	0x57	87
227	0x4e	78
228	0x32	50
229	0xf5	-11
230	0xc6	-58
231	0xce	-50
232	0xe3	-29
233	0x03	3
234	0xbe	-66
235	0x11	17
236	0x09	9
237	0xa6	-90
238	0x46	70
239	0x11	17
240	0x20	32
241	0xd1	-47
242	0xbb	-69
243	0xb5	-75
244	0x20	32
245	0xf5	-11
246	0xd3	-45
247	0x11	17
248	0xfe	-2
249	0xd2	-46
250	0x1f	31
251	0x0c	12
252	0x4c	76
253	0x12	18
254	0x26	38
255	0x21	33
